data/model_trained.npz (npz, 815126 bytes, 4 tensors)

w1 f8 [784, 128]
-0.009536531664571253 -0.0048202555403649965 0.0017093345339411023 -0.0002563349251233207 0.014751347541705548 0.017859691690420156 -0.00398943422338412 0.0038723009464803446
0.006914695873825089 0.014263743875139654 0.0033459236524140856 -0.0026722136277448415 0.0021706668654187375 0.01149458352453743 0.0012310013751498819 -0.0027625438329606047
0.01390618021588385 -0.004132812179103956 0.0010675638258410684 -0.0030484358766489582 -0.006309834181068756 0.0008386259322914896 0.0027665872555621596 0.01698125761701052
0.007973989982924227 -0.00283286227640774 0.020914465674443966 0.010002125774839733 -0.011258208587779015 0.009506599355595623 0.006217392059955521 0.0027422328735440715
0.0018219328968248267 0.014750162769426686 0.006296190698070195 0.0013776953448318557 -0.0026758881660115612 0.0074567604834334 -0.012987847283047797 -0.0005705193660543202
0.006352646010563574 -0.0022281337846528147 -0.0034218062945418045 -0.0044131854694068814 0.009756968781736344 0.000111307871791475 0.017881743028054703 -0.02430480556853178
-0.00035503303659288035 0.014573074953598622 -0.0030641364354620643 0.0009152377332062876 0.014701035608923692 -0.00030822486910124546 -0.014052903599878335 0.007432940135322993
0.0015760351270016498 0.012963771304586036 0.0010245028301439332 0.0009061050335386618 0.0011451633035284318 0.0007632329313039632 0.003299884024322304 0.006633523283960124
0.00939337131115269 -0.00876769721722538 -0.007891098327380058 -0.01601907884892903 0.013478581785470064 -0.002034768380674259 0.00457495867308157 -0.0005714247733958122
-0.004897953533242642 -0.012740005480749017 -0.005961566785656922 -0.004061876483806407 0.0004044826347813103 0.015560202045535723 0.00040223544906714477 -0.007739991114156099
-0.010133442984470083 8.501428201750453e-05 0.014218492166102563 -0.0026519818019900753 -0.02320193961493047 -0.00950290521962927 -0.01580600861856653 0.009494033510401755
-0.009116932477426011 0.006358813048212738 -0.0035559671982187385 -0.002481734653432766 0.0006328732763523066 -0.0017500402678823576 0.005758331646948936 -0.00355478129455323
-0.006547836159580377 -0.012469891530658146 0.0026796753726749585 -0.010363784875911204 0.014508015310858378 -0.013208197396890203 -0.0030231138180058475 -0.011815508854408123
-0.005044678610836624 -0.00896449731335865 -0.0027463573435274934 0.005470756555829184 -0.011663659889832066 0.004502250717427451 -0.009173869906393168 0.00771593490896815
-0.005184105832354893 -0.003231083840032093 0.010625625475125012 0.0008971295560500938 -0.013732994703265437 0.003673471892227308 0.0003847363953518047 0.015869892485081007
-0.005757712176830292 -0.003451920495182676 -0.010061406277406327 -0.008339670763383258 0.011165415492156026 0.025144164315221547 0.012332239680439139 -0.0076085306789970145
0.01076991039778636 -0.0040844874013226005 -0.010075883239437535 -0.0013519261648837618 0.015054731963994745 0.002237224668738672 -0.014973882712513525 0.008437804061646905
-0.007059980459377664 0.0029775151872949864 -0.0009159046296270865 0.009983281307713041 0.013546185802745737 -0.008086955301414574 0.0058389447873237015 -0.005487518169085145
0.015388478737481944 -0.014949714713131753 0.02527325262251933 0.008273547916902643 0.008589654702163921 0.011920911672064688 0.012285272081178848 -0.012773333063228493
-0.0028022639888430935 -0.002102905982812052 -0.0174170662526441 0.004548299010334635 -0.006613978408661352 -0.0032593036301769296 -0.005019857525933532 -0.003046294713765311
-0.007080716960149146 0.003388751786213587 0.0037233874789115136 -0.0036884728789501353 -0.008158414046689681 -0.00391993975143476 -0.006250512022544339 0.013445232674937222
-0.007478985219789663 0.00160598553316016 0.010003428392479764 -0.0005368681799719758 -7.268303252981999e-05 -0.01019374349103263 0.002158771900173885 -0.004938549863185525
-0.006687787314407076 -0.008321990921433285 -0.005302155725915874 -0.0011117680247927876 -0.00821750108508349 0.0068479891728611166 -0.006772646802053024 -0.013472039930514138
-0.010859891431151595 -0.005511910273851021 -0.004629570341592305 -0.003227728258659823 0.008534331439527908 -0.0109252090817576 0.01681186072319063 -0.004108699575546765
0.0071826529778732315 -0.008987575321690615 -0.005878506542431639 -0.0007500375026792517 -0.005096083433876523 0.006205924290428542 -0.014896610160763156 0.005405841091904585
-0.0029861333240724136 -0.008772114838194124 0.012315641520860926 -0.005286494586476458 0.0036834194008577275 0.014483701731620831 0.012371184112904806 0.001425804550252623
-0.0140780741036635 -0.002594461714704614 0.0005960913936539634 0.018146762189308066 0.0022408186711662006 -0.0011938806512619682 0.004966052452183071 0.013114121280275875
0.007937701987898744 0.00905400787941965 0.007637345963816967 -0.006025384584967187 -0.009109332163922361 0.011134582558210725 -0.011157308590625921 0.0020226584696804288
-0.0029947872476147907 -0.006748327364474951 0.014803254564479673 0.004458271120510254 0.0038828101042489294 0.0029317117779663095 0.0030870042111572995 0.006558238532210429
-0.001160731474421546 -0.011186669102138948 0.014503922833028236 0.002416001474237086 -0.0052708803258812885 0.0007919505546084167 0.0013990596092425347 -0.002995349741524494
-0.0012073551666205292 -0.016809572635744865 -0.008406370717234199 0.007279943740773444 -0.0045843211093966494 -0.005870205732303279 0.003824838149860678 0.00945908253344714
-0.010780772090079783 0.0014067102956582436 -0.009739272232501556 0.0020662017005974244 0.019193474360810498 -0.008061022837894963 0.0016673058874304664 -0.01118823761090021
00000000: 04cd ee9c e387 83bf 5eba 777e 67be 73bf
00000010: adf2 f4fa 7701 5c3f e636 c71e 96cc 30bf
00000020: e5c2 1b5a f435 8e3f 0a72 e89e cf49 923f
00000030: d4bb 4d98 3957 70bf 99e6 9cbd cdb8 6f3f
00000040: fae2 3c8a 9552 7c3f 92ad b24b 4f36 8d3f
00000050: 695c 2f15 e968 6b3f 0f6c 73c4 09e4 65bf
00000060: 9eca 51e6 37c8 613f e85e 8de2 788a 873f
00000070: 4e46 72a9 312b 543f 1598 526d 79a1 66bf
00000080: bc80 eae9 d77a 8c3f d36c 6552 91ed 70bf
00000090: 3af0 f9ed af7d 513f 33f6 9c8c 08f9 68bf
000000a0: dec6 3637 57d8 79bf 8059 f479 e77a 4b3f
000000b0: 69eb 1739 f4a9 663f bea6 70e8 8863 913f
000000c0: cff4 8fd1 aa54 803f aa8b 995a f134 67bf
000000d0: b817 5708 9a6a 953f 8750 bf98 fe7b 843f
000000e0: 7286 912d 8b0e 87bf 86ae a02a 3278 833f
000000f0: f7cf 0579 6877 793f 6900 5110 e176 663f
00000100: 5a89 458d bdd9 5d3f 1896 a455 5535 8e3f
00000110: 8392 33d2 08ca 793f 403b cb1c 7992 563f
00000120: 930d 2585 beeb 65bf b335 91e6 fa8a 7e3f
00000130: 7ceb 9b5a 5f99 8abf 1b8f 6c02 ddb1 42bf
00000140: c826 bc6d 3b05 7a3f 0fec 8e37 bc40 62bf
00000150: fa10 1b44 0c08 6cbf b851 3274 8f13 72bf
00000160: aeee 9a2e 76fb 833f 58df 30ad be2d 1d3f
00000170: 88fe 0076 974f 923f 05be 35e4 5be3 98bf
00000180: 967e fa47 7744 37bf 8876 9f02 7dd8 8d3f
00000190: a03e fcb8 f519 69bf 097a eb10 92fd 4d3f
000001a0: 91e2 4299 931b 8e3f 06eb 8bbb 2733 34bf
000001b0: c9a6 00cb c4c7 8cbf d69b b5ac 0072 7e3f
000001c0: c5fd fad4 5ed2 593f 00c5 49ee bf8c 8a3f
000001d0: f2b0 9b89 13c9 503f fc59 2ebe f5b0 4d3f
000001e0: 0ca4 fbbb 29c3 523f 5ccb 553d 7602 493f
000001f0: 90bf e1be 5b08 6b3f 5364 fdd8 c02b 7b3f
00000200: fb09 a5f4 d43c 833f c744 7966 ccf4 81bf
00000210: 6306 f749 3529 80bf d8a1 122f 4e67 90bf
00000220: de6e b89f a89a 8b3f b93b ccf4 37ab 60bf
00000230: 945d 1a1e 31bd 723f 33bd 5f5b 75b9 42bf
00000240: 91b5 e163 e00f 74bf ad1b 2097 6e17 8abf
00000250: d77c 09e6 276b 78bf 848f 88aa 2fa3 70bf
00000260: 21ef 2cb0 1782 3a3f 28e2 3cf7 06de 8f3f
00000270: f55f 5a19 645c 3a3f 5c5c 4e0b f8b3 7fbf
00000280: d1a3 b6b1 d7c0 84bf 09cd 6b3e 3649 163f
00000290: e992 d0b6 951e 8d3f ae07 7ee3 9bb9 65bf
000002a0: 674a 66cf 3fc2 97bf c315 1559 4276 83bf
000002b0: c55d 6348 732f 90bf 2c74 799b 9b71 833f
000002c0: e1a0 a4f6 e5ab 82bf 89d1 55e1 b20b 7a3f
000002d0: 3ccf 4d5a 6721 6dbf 8120 9025 9354 64bf
000002e0: f207 2103 edbc 443f 6539 e76d 33ac 5cbf
000002f0: f692 a661 0c96 773f 12fb f1ac ea1e 6dbf
00000300: 3fb1 a362 e7d1 7abf 4483 7882 d089 89bf
00000310: ad79 ddc2 aff3 653f d7aa d6a8 9b39 85bf
00000320: 9fed 51da 60b6 8d3f 56bb de3e e60c 8bbf
00000330: 779b 5fdf edc3 68bf 9c18 ecc0 ba32 88bf
00000340: bb1f 709a baa9 74bf eaa2 4976 fa5b 82bf
00000350: 4a91 275f 877f 66bf 03db dd07 8168 763f
00000360: f25b 3aee 1de3 87bf d196 6fb9 f370 723f
00000370: d744 cef9 bfc9 82bf f62b 7981 be9a 7f3f
00000380: b6ba 24d0 ed3b 75bf bbe6 8ded 1278 6abf
00000390: ba57 524f e3c2 853f 16d2 3f0d ab65 4d3f
000003a0: 9c69 0359 0b20 8cbf cafd 7934 d417 6e3f
000003b0: 1664 513c ce36 393f 2a9b db74 3240 903f
000003c0: 78ff fc17 6695 77bf 8e92 53b4 3347 6cbf
000003d0: 274b 4e17 139b 84bf bb4e 81a9 6314 81bf
000003e0: 529b 14b3 e4dd 863f 922f ad4d 64bf 993f
000003f0: ad4e e930 a541 893f f18f fd66 1f2a 7fbf
00000400: 24c6 83e7 880e 863f f323 f43c e5ba 70bf
00000410: c1ff ee27 aaa2 84bf bccb 8baa 6326 56bf
00000420: b7b4 7beb 03d5 8e3f 2137 27d9 cc53 623f
00000430: b6e6 5a84 a0aa 8ebf 2169 f5e3 d647 813f
00000440: 3b50 ef12 edea 7cbf 63ef 494b 4d64 683f
00000450: acbb 1a37 2a03 4ebf a583 c955 1d72 843f
00000460: 9a10 1148 1abe 8b3f 44ae 59c4 e48f 80bf
00000470: ecab 79ce 93ea 773f afa8 2871 147a 76bf
00000480: 3e29 4da7 fe83 8f3f b12d 38be f49d 8ebf
00000490: 9eb8 e845 3be1 993f 58c5 cccd b8f1 803f
000004a0: 55e1 3cf0 7397 813f 9001 29ae fd69 883f
000004b0: 1c2f 7d4e 0529 893f 8acd 23be e728 8abf
000004c0: 0897 fa05 c6f4 66bf 1717 870d 1d3a 61bf
000004d0: cd1b ca87 c7d5 91bf a870 07b8 3ca1 723f
000004e0: c5eb 624f 4217 7bbf 40a0 fa4f 41b3 6abf
000004f0: 3caf 78be b38f 74bf 555c 6d05 8bf4 68bf
00000500: a5cb 6a7c ab00 7dbf 3ad5 1243 bac2 6b3f
00000510: baeb 786e 8280 6e3f 058c 64cc 4937 6ebf
00000520: ef5e 24cc 5bb5 80bf 6124 8ed0 5a0e 70bf
00000530: 7e75 850b 239a 79bf 72fa 0195 2c89 8b3f
00000540: 2cfa d1ce 48a2 7ebf 04fa efd5 fd4f 5a3f
00000550: a73f 596e ad7c 843f ef26 3ba3 9397 41bf
00000560: 1e5d a2fd ac0d 13bf 7ca6 5717 75e0 84bf
00000570: 03a2 bed6 45af 613f f2c8 6ee2 713a 74bf
00000580: d688 c43c a764 7bbf cce5 c2b6 1e0b 81bf
00000590: 12c7 0e97 b6b7 75bf ec8c a9d3 1737 52bf
000005a0: 537d 5253 56d4 80bf 841e a718 a30c 7c3f
000005b0: fbd5 5a88 a2bd 7bbf f5b3 4b97 3a97 8bbf
000005c0: 2f7d 47f4 b53d 86bf 11b7 d525 a893 76bf
000005d0: 9b00 63d3 74f6 72bf 3353 f669 0971 6abf
000005e0: 1971 6893 727a 813f 2536 aabd f45f 86bf
000005f0: 80cb f6df 2037 913f baa1 e5a4 48d4 70bf
00000600: 7839 37ba 8e6b 7d3f 0fb1 9df0 1368 82bf
00000610: 27c6 9595 0f14 78bf 6761 bb45 c593 48bf
00000620: 449f fa7a a1df 74bf 7ec7 e61d 626b 793f
00000630: 3fa4 b12b 1d82 8ebf 9b55 276b 6f24 763f
00000640: 4906 fd1e 6076 68bf 213f c652 1df7 81bf
00000650: f0a8 7d6c f138 893f 8517 c095 4aa7 75bf
00000660: 3c00 a7bb b02c 6e3f 7e40 198a a1a9 8d3f
00000670: f1f8 6b39 1056 893f 7b13 7cfa 415c 573f
00000680: 965c ed1e f7d4 8cbf 6f65 e406 fb40 65bf
00000690: fe15 4585 6088 433f 3485 8698 1095 923f
000006a0: e7e9 155d 565b 623f fb50 8f96 7f8f 53bf
000006b0: 0422 f58d 4857 743f f6d2 1d90 93db 8a3f
000006c0: 6a1f 8c53 a441 803f ef2d eb5d e88a 823f
000006d0: a709 4972 5648 7f3f 27e6 cfdb 12ae 78bf
000006e0: 690d dcdd e9a7 82bf ec79 895f bacd 863f
000006f0: 44a0 109c a4d9 86bf 1ddd 4d7f d291 603f
00000700: c5f7 2e29 8688 68bf 8377 5455 22a4 7bbf
00000710: a096 d431 2b51 8e3f a076 8c0a d642 723f
00000720: c02b 42cd d7ce 6f3f 882d a5c6 3e04 683f
00000730: 5526 25c4 ea49 693f b74d 3ec0 cfdc 7a3f
00000740: 5388 36ee 7504 53bf 0113 8f4f 09e9 86bf
00000750: 323e da91 3bb4 8d3f 6bb9 34ea b8ca 633f
00000760: 73c1 ee29 eb96 75bf 9632 b5dd 5cf3 493f
00000770: 2a17 14d1 14ec 563f 0cfc c125 b489 68bf
00000780: 3c80 23bd 03c8 53bf 77c9 eb52 8736 91bf
00000790: 18f5 77fa 5b37 81bf 7591 8804 93d1 7d3f
000007a0: 73d9 d353 02c7 72bf 32ad 415a 5b0b 78bf
000007b0: 0342 8458 4455 6f3f a7f1 0c91 485f 833f
000007c0: c790 6bbc 3a14 86bf d342 bfad 2b0c 573f
000007d0: eab0 cdfd 2ef2 83bf b165 6497 23ed 603f
000007e0: d586 b442 74a7 933f 6844 b02b 4c82 80bf
000007f0: ee81 9210 3051 5b3f 610b 1cd5 dbe9 86bf

b1 f8 [1, 128]
0.030981268302283708 0.014449043409067986 -0.09147181924800751 0.0003141045512388446 0.05117062206219655 -6.666761607009651e-05 0.02662009807494534 0.03650927207476668
0.0003627401816747724 0.027602622610005272 0.07337442175616181 -0.003352594935238887 -0.0005756379940788541 0.05519042789760858 0.03795024216204429 -0.012686426405205464
0.020562064458120057 0.06559753853764796 -0.025939656408867605 0.0966679356654732 -0.0013418995830331657 0.07479940406682915 0.003359470132490219 0.00012186874700494094
-0.03255139949599326 0.00025019241489924283 -0.03319740490559374 0.034898349400509586 0.013408775178298582 0.017177644251503837 0.007997675867449015 0.026553659089767173
0.05202001200747149 0.004439345935307752 0.03979061417309518 -0.009343374178328447 0.03921896267527752 -0.003879497678494339 0.04832044325914238 0.015757940303570934
0.010169242065051284 0.04082099272079064 0.005907599220685018 0.003553532004517381 -0.01685878765635151 0.017858371760419323 -0.002007654725956452 0.07402014426655026
0.0031472461320746314 0.020437842233172635 0.020597926610295133 0.0235025865542117 0.01463576089646331 -0.00860390084914507 0.0856814133660352 0.060810026872515514
-0.005628473293544436 0.049741091557690055 0.0010287523101329382 0.025200736085016103 0.0010809185804260505 0.00813970366682012 -0.05810504325350205 0.00517156132227627
0.028784861062874124 0.023449140803320244 0.04956836395033523 0.008337611029577313 0.009156258683158036 -0.006667095883049413 0.023868133293543977 -0.00038294746763059133
0.002245869388762508 -0.05007381341337554 0.00029922223781534546 0.00025581351508357266 0.061676795960976444 -0.0013462235179951456 0.00760807857174948 0.02532609218444216
-0.005166599788183263 0.020553666537259766 -0.0008408035795477614 -0.001674664536326916 -0.0009426531175319196 0.03369806529814625 0.047942450365739964 0.01759645659655828
0.06060892694448445 0.019998124072668245 0.02712461493590641 0.01805732797934545 0.05288668018073484 0.0022404568698442587 0.012653666796923625 0.08926664520514724
0.03601825580044428 0.006332795981274024 -0.029983891974459793 -0.007098490174194263 0.0006059731945592706 0.024998114189771985 -0.006917171591545127 0.08043316020170427
-0.011758521599740376 -0.02759709784209933 0.04106026584037384 0.002748593751637002 0.007402895099930783 0.0447502226165533 0.0016662433523889808 0.01010453919991474
-0.001144663266580406 -0.028048297820854235 -0.0141576878053396 0.023292524791232852 0.08504992584386688 0.02597653500468091 -0.008755279075931682 0.027913047155652924
0.03437765684160782 -0.04039500739581492 0.000781971865330526 0.02190948978482415 0.015429571286548732 -0.0116462745050082 -4.585624907120448e-05 0.05371403299277408
00000000: 916f 96b8 8db9 9f3f 5a15 34c7 7597 8d3f
00000010: 4002 2d78 b26a b7bf 33aa 6cc6 cc95 343f
00000020: 1cd5 8b28 0933 aa3f d2bd 42ec fc79 11bf
00000030: 79c2 978a 4c42 9b3f e9af 1fe3 57b1 a23f
00000040: faec 9c37 c5c5 373f 0b41 93a5 dc43 9c3f
00000050: 7f3d ce85 aac8 b23f 2194 50b3 e676 6bbf
00000060: 9e8e f02d cddc 42bf 07b5 be75 eb41 ac3f
00000070: 582a ecd1 366e a33f 4695 1b54 57fb 89bf
00000080: 6721 8bc9 380e 953f d2a0 b712 00cb b03f
00000090: b641 c8df ec8f 9abf 434a 41d6 3abf b83f
000000a0: 2893 b6b4 55fc 55bf af31 3ac2 0d26 b33f
000000b0: 86da 3acb 5185 6b3f ece3 9321 79f2 1f3f
000000c0: ed73 8cb8 93aa a0bf 79f2 5c3d 8865 303f
000000d0: 6e60 c310 40ff a0bf 8b19 b84a 32de a13f
000000e0: 2030 f656 0f76 8b3f e84f 2131 0497 913f
000000f0: b28c 5be2 1561 803f a8cb 84e5 e130 9b3f
00000100: 2b86 9ef4 5da2 aa3f b874 b9d9 fd2e 723f
00000110: 5455 1f75 6f5f a43f 8edf 3d74 9e22 83bf
00000120: a78f 2504 8214 a43f 9ee7 ed74 e5c7 6fbf
00000130: 5a6f 0d07 75bd a83f 254e 0679 d922 903f
00000140: ab8a c190 9cd3 843f cfbc 7339 7de6 a43f
00000150: 4823 3617 9132 783f 3883 d4f7 4b1c 6d3f
00000160: bf75 8916 6e43 91bf 10e9 ae0a 7749 923f
00000170: 2ff4 776c 5b72 60bf a2ba def2 fbf2 b23f
00000180: 170d b6e6 40c8 693f 5119 f85f a8ed 943f
00000190: 7f62 a074 9f17 953f a9ab 7ce2 0f11 983f
000001a0: eb15 3893 5af9 8d3f 37ef 1e06 ec9e 81bf
000001b0: d93c 4894 37ef b53f 5767 5fe9 7d22 af3f
000001c0: 830f 8ecb e10d 77bf d5e6 0313 aa77 a93f
000001d0: f3ec c561 e6da 503f 2ff5 47c5 38ce 993f
000001e0: 6de2 f67c b3b5 513f ad8e 6288 8cab 803f
000001f0: 4c4e 03b9 f1bf adbf 1497 f96b c62e 753f
00000200: da2f 8a53 c779 9d3f d66d 7a33 0d03 983f
00000210: dc73 2a4c 0661 a93f 4326 9735 4f13 813f
00000220: 3375 c83c 84c0 823f b490 6eec f44e 7bbf
00000230: 7f3c a64f e370 983f b3b9 7cd9 ca18 39bf
00000240: 4523 6df2 ed65 623f 3a2f fe5d 46a3 a9bf
00000250: 7e62 c4b9 1d9c 333f 6f6b 60ae d6c3 303f
00000260: 741f 26db 1994 af3f 58c1 e77e 780e 56bf
00000270: 6ac0 6a0a a629 7f3f 23af ab46 15ef 993f
00000280: a0c2 f291 9229 75bf 2197 5c36 050c 953f
00000290: 9fb8 31f0 2b8d 4bbf ef31 945a 0d70 5bbf
000002a0: 1ec3 d727 8ce3 4ebf c3bb c970 df40 a13f
000002b0: e068 d2b0 e98b a83f 3e49 6e36 ce04 923f
000002c0: 39f9 241e 2208 af3f 6a6c 7e63 637a 943f
000002d0: 13e7 4318 8ec6 9b3f c06b 7fc4 9e7d 923f
000002e0: 8160 8a83 f613 ab3f 8b94 7d1f 945a 623f
000002f0: d4c3 8968 2aea 893f 369d c7c9 2dda b63f
00000300: 0299 711d fc70 a23f 12e7 1bfa 6af0 793f
00000310: 9597 bfed 18b4 9ebf 69e2 6272 4e13 7dbf
00000320: 1fed c486 45db 433f 8e81 a00b 1b99 993f
00000330: 6a9c 431c 2e55 7cbf 2c8b 9480 4497 b43f
00000340: 58f5 c20d da14 88bf 6a0a c9e2 6942 9cbf
00000350: 2421 e6e5 d905 a53f 8da2 be08 3884 663f
00000360: 2547 9985 7f52 7e3f 06ee 404d 80e9 a63f
00000370: 52fe 292d bb4c 5b3f 4cff 3c4b b0b1 843f
00000380: d890 dfd2 10c1 52bf f569 6567 b1b8 9cbf
00000390: 9e25 e3b0 b4fe 8cbf 94e2 e0e0 fed9 973f
000003a0: 73d1 06fa d4c5 b53f 66e8 3bc1 9799 9a3f
000003b0: 5049 63aa 49ee 81bf 6633 a9e2 3c95 9c3f
000003c0: f814 b2bf f299 a13f 9097 5f87 a7ae a4bf
000003d0: 2626 43cb a79f 493f ef36 64f8 706f 963f
000003e0: b045 8900 8a99 8f3f b838 f480 00da 87bf
000003f0: b3d7 7ab8 b80a 08bf fc98 14de 6780 ab3f

w2 f8 [128, 10]
-0.06169250923036696 -0.003289983154887089 0.015316284495883856 -0.006779088192930025 0.2863935947827002 0.0812451405671203 -0.11226970646798953 -0.09600966729492504
-0.10233773159015774 -0.01437303041273585 -0.017434964063597447 0.08303764209737761 0.1070461339929856 -0.040569013840173654 0.1402511411316403 -0.03221851653062158
-0.12573692201939038 -0.17148358816629544 -0.009126969046521148 0.050799392124496204 0.05377809627630456 -0.22028151568226412 0.4009716850154011 -0.19820243833645243
-0.06503785840305032 -0.15070068094828923 0.36530987736314036 -0.3728738018265081 0.34574209665590144 -0.1654850065403064 -0.08929919212044171 0.15712734690410315
0.02823768901072325 -0.06533260015642788 -0.028417479123832804 -0.033941109299059274 -0.025018705778552117 -0.05458614558024596 0.1016812426690005 -0.05090103268781106
0.023847049782241142 0.007500416295083901 0.03497579274938785 -0.06392480063426559 -0.067280065221661 -0.2006405895558883 0.0563034930885793 0.285174443192444
-0.17839938704060104 0.11285768243064496 0.00016946706698160063 0.0009615395670480646 0.002359571554049612 0.000881217974436096 0.0007596504581522301 -0.012471703550603546
0.021104200145057116 -0.007214520525333328 0.004024228230238458 -0.007742443518118255 -0.09578039570685842 -0.02087951422716481 0.2366055120036461 -0.0617718080120893
0.1385520969134907 -0.05330528775277471 0.18189175438545577 -0.0185182583791839 -0.09099225898042637 -0.1580219556140157 0.12271400612185243 -0.07843858222638767
-0.13659388733655184 0.042462036591614405 -0.1193558165196144 0.15790066785735332 0.030053321990999072 0.08665405204245967 0.003597194801866807 -0.10210855850956277
0.19268305827415988 -0.1944328692826882 0.07446586665130504 -0.02087033754875661 -0.031139317510067745 -0.12321272028713012 0.5469736321395688 -0.21191163919115033
-0.1422212438485479 0.005906550197347932 0.3332141410300019 -0.28544249365042124 -0.07675740125822979 0.2293228794004979 -0.25046558056486407 0.36801616163179807
-0.28856352327453916 -0.13453897511695717 0.07805179960835092 -0.0066917206943168505 0.15250704522053066 -0.42468276738324723 -0.08746512003726603 -0.39064178073425593
0.2651779984253892 -0.10803880539481722 0.490379449100136 0.09174278219257158 -0.09018924452526311 0.03935260193777111 0.05001079212459387 0.013035277162613825
0.06283832829412489 0.20465946042753405 -0.16939893163220257 0.06197666090605623 -0.03739026712534011 -0.1264942202649613 0.05042844991015979 -0.10643428984906796
0.0005573594117663777 0.003619131385137989 0.012112697299828688 0.0020572627571564216 0.008501628750014466 -0.002759228934387264 -0.005222409484339166 -0.007413724835228639
-0.006793251582161139 0.008145846101840782 0.06749177888502991 0.08284726274525409 -0.11059788855738455 -0.17056658246775777 -0.04426993499782236 0.19384449123731215
0.09565872082504584 -0.044656971598136586 0.009405350825789138 -0.05667910518583407 0.03278338580876301 0.03878891386188503 -0.0267259122512478 -0.1000509296198826
0.040559658476977616 0.0379535766037044 -0.06053282927096769 0.14581860903335406 -0.03817160382315124 0.0019259492832536264 0.09397549810892597 -0.06987871496212397
0.007803117043004003 0.08231488893167833 -0.08885628938812111 -0.011201978751917106 0.023485953868264447 0.01645468674034694 0.07399356093003873 -0.06686939043093583
-0.0076211533571072364 -0.03677594970801685 0.03294794748682534 0.0009253461452707946 -0.053780699807959735 0.13218159545403316 0.06536147692224441 -0.08078869367144902
-0.03419468761042655 -0.018384639185121735 -0.06256756572615627 -0.2377634139947417 -0.295848872630054 -0.2134763372592896 0.4790151950335351 0.04250243821285121
-0.2582320096700787 0.2221521587600134 0.06310174555265594 0.2489081725088191 0.05766061053036527 -0.06590909261864258 0.0371589293603215 0.06080101572985141
-0.06691117083075197 0.010185938783753993 -0.21720171408063915 -0.023455010645627584 0.15185221590910114 0.03572731531752751 -0.27171517211006124 0.2661017877567249
-0.10169818228385047 0.21316308763239317 -0.28291136923979365 -0.11043534965546052 -0.26141940443581824 0.3463405481047435 -0.09238991736498978 0.2800555937060985
0.15197953543637918 -0.11342694286860383 0.06353987961888057 0.18234333887003892 -0.11262205790758897 -0.0707723928412061 -0.15301151230108373 0.12017707653940646
-0.02413111631766413 -0.041763991027157776 -0.2198277552758816 0.06165325580842049 0.009295741613302832 0.22395067526970722 -0.05363046592841487 -0.04072164177646157
0.10989910558680475 0.11921089045640741 -0.18926937739651528 0.002492032575985813 -0.04532612235882906 0.008689782921690772 0.222344136572019 0.4132070060300912
-0.006936370726127492 -0.1198356699289219 -0.2148042557671809 0.010777273966004197 -0.16423594630861363 -0.1075343270459156 -0.00014140501334977709 0.009633019024810683
0.003256369658937062 0.014583430195846592 -0.004584846886641323 0.010912755551622225 -0.01053395488010997 -0.0010683770768070712 -0.010781113519296611 -0.010230689702428176
-0.10965243851624275 0.036895839788662906 0.20959812379468853 -0.12858804295083082 0.07260181842271088 -0.14605741195480573 0.08071287679644708 -0.1660110756011241
0.1608823964040512 0.03107050457454097 0.030277722259112464 -0.017165688628226986 0.009794253436900194 0.026493757101346792 0.0018140618388358723 -0.03917828639853112
00000000: f1ee 1a1b 2996 afbf 6889 bf41 98f3 6abf
00000010: 8565 0ce8 245e 8f3f 6487 5da1 63c4 7bbf
00000020: 6609 d8cc 4554 d23f 29d8 b145 7bcc b43f
00000030: 8a8d 9c1d b5bd bcbf dbac 21ed 1694 b8bf
00000040: 0499 533a ce32 babf fd72 897c 9b6f 8dbf
00000050: dd20 d7a1 78da 91bf 272b 2575 f441 b53f
00000060: 62c1 a91c 6067 bb3f 525a 5937 76c5 a4bf
00000070: b18b 31d8 bff3 c13f 3039 a605 f27e a0bf
00000080: bd8a fcbf 2518 c0bf decb 7c99 2cf3 c5bf
00000090: 5903 880c 29b1 82bf 1aac a9bf 6002 aa3f
000000a0: 7ce8 7e79 cd88 ab3f a662 e248 2f32 ccbf
000000b0: a1d7 7024 85a9 d93f 173e 528f b25e c9bf
000000c0: 88cd d732 52a6 b0bf db33 14f0 284a c3bf
000000d0: a28c 0bae 3c61 d73f 8852 1814 2add d7bf
000000e0: 4f34 7f75 a320 d63f c0d3 88d9 9c2e c5bf
000000f0: ba6d b7d5 4fdc b6bf cd53 21b8 bf1c c43f
00000100: 4b40 433b 57ea 9c3f 23d5 0825 a3b9 b0bf
00000110: 91f1 e2bd 7819 9dbf 14dd dba4 ba60 a1bf
00000120: d9b2 6dec 809e 99bf 6be8 291c b7f2 abbf
00000130: 7a47 e12b c807 ba3f ea1b 743d b30f aabf
00000140: b8e8 ae6b 5c6b 983f 74af 19ab c1b8 7e3f
00000150: 5a45 05dc 58e8 a13f 3ca3 2030 605d b0bf
00000160: 72be cc2f 4439 b1bf f943 3241 97ae c9bf
00000170: e198 eeba cfd3 ac3f dea8 ca4e 4c40 d23f
00000180: 3ea0 7b86 cad5 c6bf 6758 24b7 3de4 bc3f
00000190: 0abd 5705 5f36 263f 379d 447f fa81 4f3f
000001a0: b6e7 0755 6154 633f afb4 bf30 31e0 4c3f
000001b0: ae51 e4ef 68e4 483f b682 00b7 c38a 89bf
000001c0: e69b b9e5 569c 953f f9eb 661b f98c 7dbf
000001d0: c08b 3f8a b57b 703f 7c1e 395b 8ab6 7fbf
000001e0: 64ad 2863 1085 b8bf 1a54 0c7b 7061 95bf
000001f0: 90f3 0de4 1649 ce3f e613 74ee 8da0 afbf
00000200: ad90 843a 13bc c13f 283e 34a7 d44a abbf
00000210: 43b1 3fa0 3a48 c73f cb4a 7848 73f6 92bf
00000220: 7e95 82c8 444b b7bf b1c1 b43d 103a c4bf
00000230: b6f3 0d63 2f6a bf3f 582d 6809 8d14 b4bf
00000240: f3d4 7893 e87b c1bf 600f f784 95bd a53f
00000250: cb03 8a50 1a8e bebf c760 3bce 1636 c43f
00000260: 3d99 594c 4cc6 9e3f 4f97 96bf f52e b63f
00000270: e0e4 0041 dd77 6d3f d6b5 7057 c923 babf
00000280: 90f0 e3a4 d6a9 c83f 5715 6b1f 2de3 c8bf
00000290: e786 efed 3110 b33f 2fdf e9a4 085f 95bf
000002a0: 2a50 4d39 fce2 9fbf 869c 156c de8a bfbf
000002b0: 820a bad8 ce80 e13f fdde fbab eb1f cbbf
000002c0: 461f 9043 4e34 c2bf 476d e07e 7731 783f
000002d0: 4278 9267 6153 d53f f980 c797 b044 d2bf
000002e0: b54a 2180 5fa6 b3bf dcf5 9fbd 735a cd3f
000002f0: 032f 53c9 a007 d0bf d8e9 a6a8 938d d73f
00000300: 7017 d223 d377 d2bf 8614 15b9 9238 c1bf
00000310: 5d39 b6e6 33fb b33f ceb0 9318 c768 7bbf
00000320: eadd d0d1 5985 c33f 1d7e 45a1 002e dbbf
00000330: 30cc 1936 1d64 b6bf f81b 2d62 4600 d9bf
00000340: 33c5 b623 adf8 d03f 46a1 de5f 6ea8 bbbf
00000350: 46ff 207c 6062 df3f df40 2979 747c b73f
00000360: 18dc af6f a416 b7bf aea3 ab34 0626 a43f
00000370: 098f 3eb9 039b a93f 619d dc48 3db2 8a3f
00000380: 5c65 f534 2c16 b03f c937 adfc 4732 ca3f
00000390: 1d38 ab3b ddae c5bf cee0 69a7 67bb af3f
000003a0: a1ec fb2c d124 a3bf 49e4 956d f630 c0bf
000003b0: 6be1 4dfe c1d1 a93f 9d21 1312 473f bbbf
000003c0: fb33 0b39 7843 423f a110 0d5e dea5 6d3f
000003d0: 0c24 27b6 8ace 883f b849 5c88 64da 603f
000003e0: b967 8d4b 4d69 813f bfc0 21c1 859a 66bf
000003f0: 039e 10df 1764 75bf 1773 579b da5d 7ebf
00000400: f0e6 0f96 3dd3 7bbf c761 d8f4 c4ae 803f
00000410: 8a60 0f27 2447 b13f fed1 0d6c 7a35 b53f
00000420: 8b51 5caa 2450 bcbf 27a8 be32 20d5 c5bf
00000430: 9cfc 0586 8caa a6bf b3df 2f73 e5cf c83f
00000440: ec50 8505 177d b83f d8d3 1a51 47dd a6bf
00000450: 6024 a2d1 1c43 833f ef86 472e 0b05 adbf
00000460: 0a34 cde3 fbc8 a03f 76e3 f7f8 23dc a33f
00000470: 0bac 4c9c 095e 9bbf f0db a60e f09c b9bf
00000480: df1e 644d 3cc4 a43f 97eb 8eb4 a66e a33f
00000490: 7e37 1bb4 28fe aebf cb25 7926 2faa c23f
000004a0: c4d3 1c7c 3a8b a3bf 066e dc4b 048e 5f3f
000004b0: 3cce 003b c70e b83f 6ae6 724b 92e3 b1bf
000004c0: 32e1 1a48 29f6 7f3f 6578 efab 9612 b53f
000004d0: b344 f728 49bf b6bf 0ca9 1e23 10f1 86bf
000004e0: 1b45 1eaf b30c 983f 2eb1 a955 7fd9 903f
000004f0: 2821 4ff4 3df1 b23f 6d1b 0135 5a1e b1bf
00000500: 8e41 d3c6 5b37 7fbf 99f0 8c1a 4cd4 a2bf
00000510: 293c daa9 8dde a03f 34b2 38b7 5d52 4e3f
00000520: 7f90 a9d5 2489 abbf abd8 cd96 53eb c03f
00000530: d39e cc9d 87bb b03f 6f97 345d 91ae b4bf
00000540: f1a9 f751 f781 a1bf d107 3240 6cd3 92bf
00000550: 468c 9590 6d04 b0bf fe77 a513 086f cebf
00000560: 924a 201c 30ef d2bf 58cf 7f4f 3153 cbbf
00000570: a930 3d59 2fa8 de3f c8b8 3f2c e1c2 a53f
00000580: d30d 148d df86 d0bf 5d16 4e60 7b6f cc3f
00000590: 921b 789d 6f27 b03f e7f5 5016 39dc cf3f
000005a0: 8a99 fd08 b185 ad3f e45c 4e15 6bdf b0bf
000005b0: d0c2 b6c4 7e06 a33f 4f20 3f8c 4f21 af3f
000005c0: a384 742a 1721 b1bf 956a a48f 5ddc 843f
000005d0: 3c45 4e09 44cd cbbf dae8 991e 9704 98bf
000005e0: e0cd 93b6 e46f c33f a3ae b9c5 d94a a23f
000005f0: d88a 8208 c863 d1bf 04a0 f4ca cf07 d13f
00000600: dcc6 f85e e408 babf b239 0c95 ed48 cb3f
00000610: ae4b a349 381b d2bf e7af 17b7 7d45 bcbf
00000620: 60dd 2574 18bb d0bf a1de d88b 712a d63f
00000630: ee11 9099 dda6 b7bf 41e4 014c 6eec d13f
00000640: 9325 2ebf 1074 c33f 2c1d 1b52 8c09 bdbf
00000650: 4b72 f448 2644 b03f bb8d 8bca 0657 c73f
00000660: c274 8597 ccd4 bcbf e26f b6b8 231e b2bf
00000670: e650 9f98 e195 c3bf 2834 77c5 ecc3 be3f
00000680: 91f2 99cd d3b5 98bf 9062 39ff 1662 a5bf
00000690: 48dd d4dd 5023 ccbf 8c36 c7fa 0391 af3f
000006a0: 8605 c551 a509 833f 43aa 196d 6aaa cc3f
000006b0: 69ac 76d2 7375 abbf 65b2 568f 77d9 a4bf
000006c0: cbdf 5a08 5922 bc3f d759 d6db 9a84 be3f
000006d0: 40b2 069d fa39 c8bf b0f9 42cd 2b6a 643f
000006e0: 820f 5f4a fc34 a7bf 88fc a9eb f2cb 813f
000006f0: fc5f 84cd c575 cc3f f425 58cc fb71 da3f
00000700: 6413 bfd6 4f69 7cbf 272d 3deb 8cad bebf
00000710: 85e4 c7b2 b47e cbbf 20cb ca39 6512 863f
00000720: c98e 1cf9 ae05 c5bf 290d dca1 5e87 bbbf
00000730: 09cc ced0 c388 22bf 25ef 62ed 79ba 833f
00000740: 15d3 0a26 1aad 6a3f 2d8b 09de eadd 8d3f
00000750: a4f4 f676 8fc7 72bf 95af a041 6d59 863f
00000760: 7030 a97d d392 85bf 061e b326 1981 51bf
00000770: 9eb7 d68f 6814 86bf 5ae7 7fed d3f3 84bf
00000780: 119a 5aa5 2e12 bcbf f963 80f2 02e4 a23f
00000790: 9325 807f 1cd4 ca3f f8b2 90af 9275 c0bf
000007a0: d273 c163 0896 b23f d196 d75f 02b2 c2bf
000007b0: fdf1 345e 99a9 b43f ae84 3dd6 d93f c5bf
000007c0: 6b5c 875b cb97 c43f 004d 1244 f2d0 9f3f
000007d0: 91dd 998b 1f01 9f3f 4112 16dd e193 91bf
000007e0: f50d 9a71 020f 843f 769d 31f1 2d21 9b3f
000007f0: 1681 5311 bab8 5d3f ea0b 9725 2d0f a4bf

b2 f8 [1, 10]
-0.18529658940057256 0.28074470705907967 -0.05386127932880238 -0.08379081168118842 0.058717997905845615 0.257148752166452 -0.007499567849242756 0.1313521634061957
-0.36063024219808043 -0.03688513007968367
00000000: 1395 c473 ccb7 c7bf 9901 d6a5 b8f7 d13f
00000010: 93d1 79a2 b493 abbf 7941 e08b 5073 b5bf
00000020: 7c68 6211 4910 ae3f 95c6 300a 2075 d03f
00000030: 6e99 58ea ddb7 7ebf 9c52 0bcf 25d0 c03f
00000040: bb1d 0cde 9014 d7bf f548 cd96 9be2 a2bf
